{\rtf1\ansi\ansicpg1252\cocoartf2577
\cocoatextscaling0\cocoaplatform0{\fonttbl\f0\fswiss\fcharset0 Helvetica;}
{\colortbl;\red255\green255\blue255;}
{\*\expandedcolortbl;;}
\paperw11900\paperh16840\margl1440\margr1440\vieww11520\viewh8400\viewkind0
\pard\tx566\tx1133\tx1700\tx2267\tx2834\tx3401\tx3968\tx4535\tx5102\tx5669\tx6236\tx6803\pardirnatural\partightenfactor0

\f0\fs24 \cf0 _________________________________________________________________\
conv2d_2 (Conv2D)            (None, 28, 28, 125)       4625      \
_________________________________________________________________\
max_pooling2d_2 (MaxPooling2 (None, 13, 13, 125)       0         \
_________________________________________________________________\
flatten_2 (Flatten)          (None, 21125)             0         \
_________________________________________________________________\
dropout_1 (Dropout)          (None, 21125)             0         \
_________________________________________________________________\
dense_1 (Dense)              (None, 10)                211260    \
=================================================================\
Total params: 215,957\
Trainable params: 215,957\
Non-trainable params: 0\
_________________________________________________________________\
600/600 [==============================] - 4s 6ms/step - loss: 4.1083 - accuracy: 0.3663  \
87\
89\
313/313 [==============================] - 4s 13ms/step - loss: 0.6964 - accuracy: 0.7776\
accuracy  77.75999903678894\
Model: "model_2"\
_________________________________________________________________\
Layer (type)                 Output Shape              Param #   \
=================================================================\
input_3 (InputLayer)         [(None, 28, 28, 1)]       0         \
_________________________________________________________________\
conv2d_3 (Conv2D)            (None, 28, 28, 18)        36        \
_________________________________________________________________\
max_pooling2d_3 (MaxPooling2 (None, 10, 10, 18)        0         \
_________________________________________________________________\
conv2d_4 (Conv2D)            (None, 10, 10, 100)       1900      \
_________________________________________________________________\
flatten_3 (Flatten)          (None, 10000)             0         \
_________________________________________________________________\
flatten_4 (Flatten)          (None, 10000)             0         \
_________________________________________________________________\
dense_2 (Dense)              (None, 10)                100010    \
=================================================================\
Total params: 101,946\
Trainable params: 101,946\
Non-trainable params: 0\
_________________________________________________________________\
600/600 [==============================] - 2s 2ms/step - loss: 2.3480 - accuracy: 0.1369  \
87\
89\
313/313 [==============================] - 1s 4ms/step - loss: 1.6352 - accuracy: 0.5311\
accuracy  53.109997510910034\
Model: "model_3"\
_________________________________________________________________\
Layer (type)                 Output Shape              Param #   \
=================================================================\
input_4 (InputLayer)         [(None, 28, 28, 1)]       0         \
_________________________________________________________________\
conv2d_5 (Conv2D)            (None, 28, 28, 60)        120       \
_________________________________________________________________\
max_pooling2d_4 (MaxPooling2 (None, 7, 7, 60)          0         \
_________________________________________________________________\
flatten_5 (Flatten)          (None, 2940)              0         \
_________________________________________________________________\
dropout_2 (Dropout)          (None, 2940)              0         \
_________________________________________________________________\
dense_3 (Dense)              (None, 179)               526439    \
_________________________________________________________________\
dense_4 (Dense)              (None, 10)                1800      \
=================================================================\
Total params: 528,359\
Trainable params: 528,359\
Non-trainable params: 0\
_________________________________________________________________\
600/600 [==============================] - 4s 5ms/step - loss: 1.7526 - accuracy: 0.4090  \
87\
89\
313/313 [==============================] - 3s 8ms/step - loss: 0.9087 - accuracy: 0.7015\
accuracy  70.14999985694885\
Model: "model_4"\
_________________________________________________________________\
Layer (type)                 Output Shape              Param #   \
=================================================================\
input_5 (InputLayer)         [(None, 28, 28, 1)]       0         \
_________________________________________________________________\
conv2d_6 (Conv2D)            (None, 24, 24, 40)        1040      \
_________________________________________________________________\
max_pooling2d_5 (MaxPooling2 (None, 23, 23, 40)        0         \
_________________________________________________________________\
max_pooling2d_6 (MaxPooling2 (None, 23, 23, 40)        0         \
_________________________________________________________________\
flatten_6 (Flatten)          (None, 21160)             0         \
_________________________________________________________________\
dense_5 (Dense)              (None, 246)               5205606   \
_________________________________________________________________\
dense_6 (Dense)              (None, 10)                2470      \
=================================================================\
Total params: 5,209,116\
Trainable params: 5,209,116\
Non-trainable params: 0\
_________________________________________________________________\
600/600 [==============================] - 21s 35ms/step - loss: 5.3099 - accuracy: 0.0952\
87\
89\
313/313 [==============================] - 4s 13ms/step - loss: 2.4362 - accuracy: 0.0892\
accuracy  8.919999748468399\
Model: "model_5"\
_________________________________________________________________\
Layer (type)                 Output Shape              Param #   \
=================================================================\
input_6 (InputLayer)         [(None, 28, 28, 1)]       0         \
_________________________________________________________________\
conv2d_7 (Conv2D)            (None, 28, 28, 21)        210       \
_________________________________________________________________\
max_pooling2d_7 (MaxPooling2 (None, 28, 28, 21)        0         \
_________________________________________________________________\
flatten_7 (Flatten)          (None, 16464)             0         \
_________________________________________________________________\
dropout_3 (Dropout)          (None, 16464)             0         \
_________________________________________________________________\
dense_7 (Dense)              (None, 161)               2650865   \
_________________________________________________________________\
dense_8 (Dense)              (None, 10)                1620      \
=================================================================\
Total params: 2,652,695\
Trainable params: 2,652,695\
Non-trainable params: 0\
_________________________________________________________________\
600/600 [==============================] - 10s 17ms/step - loss: 1.6813 - accuracy: 0.5037\
87\
89\
313/313 [==============================] - 3s 8ms/step - loss: 0.4242 - accuracy: 0.8703\
accuracy  87.02999949455261\
Model: "model_6"\
_________________________________________________________________\
Layer (type)                 Output Shape              Param #   \
=================================================================\
input_7 (InputLayer)         [(None, 28, 28, 1)]       0         \
_________________________________________________________________\
conv2d_8 (Conv2D)            (None, 26, 26, 115)       1150      \
_________________________________________________________________\
conv2d_9 (Conv2D)            (None, 26, 26, 104)       12064     \
_________________________________________________________________\
max_pooling2d_8 (MaxPooling2 (None, 7, 7, 104)         0         \
_________________________________________________________________\
flatten_8 (Flatten)          (None, 5096)              0         \
_________________________________________________________________\
flatten_9 (Flatten)          (None, 5096)              0         \
_________________________________________________________________\
dropout_4 (Dropout)          (None, 5096)              0         \
_________________________________________________________________\
dense_9 (Dense)              (None, 10)                50970     \
=================================================================\
Total params: 64,184\
Trainable params: 64,184\
Non-trainable params: 0\
_________________________________________________________________\
600/600 [==============================] - 3s 4ms/step - loss: 2.6826 - accuracy: 0.1934  \
87\
89\
313/313 [==============================] - 7s 22ms/step - loss: 0.8312 - accuracy: 0.7304\
accuracy  73.0400025844574\
Model: "model_7"\
_________________________________________________________________\
Layer (type)                 Output Shape              Param #   \
=================================================================\
input_8 (InputLayer)         [(None, 28, 28, 1)]       0         \
_________________________________________________________________\
conv2d_10 (Conv2D)           (None, 26, 26, 88)        880       \
_________________________________________________________________\
max_pooling2d_9 (MaxPooling2 (None, 13, 13, 88)        0         \
_________________________________________________________________\
max_pooling2d_10 (MaxPooling (None, 7, 7, 88)          0         \
_________________________________________________________________\
flatten_10 (Flatten)         (None, 4312)              0         \
_________________________________________________________________\
dense_10 (Dense)             (None, 76)                327788    \
_________________________________________________________________\
flatten_11 (Flatten)         (None, 76)                0         \
_________________________________________________________________\
dense_11 (Dense)             (None, 10)                770       \
=================================================================\
Total params: 329,438\
Trainable params: 329,438\
Non-trainable params: 0\
_________________________________________________________________\
600/600 [==============================] - 4s 5ms/step - loss: 2.2415 - accuracy: 0.1960  \
87\
89\
313/313 [==============================] - 3s 8ms/step - loss: 2.1193 - accuracy: 0.2699\
accuracy  26.989999413490295\
Model: "model_8"\
_________________________________________________________________\
Layer (type)                 Output Shape              Param #   \
=================================================================\
input_9 (InputLayer)         [(None, 28, 28, 1)]       0         \
_________________________________________________________________\
conv2d_11 (Conv2D)           (None, 26, 26, 41)        410       \
_________________________________________________________________\
conv2d_12 (Conv2D)           (None, 22, 22, 100)       102600    \
_________________________________________________________________\
conv2d_13 (Conv2D)           (None, 22, 22, 105)       262605    \
_________________________________________________________________\
flatten_12 (Flatten)         (None, 50820)             0         \
_________________________________________________________________\
flatten_13 (Flatten)         (None, 50820)             0         \
_________________________________________________________________\
dense_12 (Dense)             (None, 10)                508210    \
=================================================================\
Total params: 873,825\
Trainable params: 873,825\
Non-trainable params: 0\
_________________________________________________________________\
600/600 [==============================] - 20s 33ms/step - loss: 5.6288 - accuracy: 0.1027\
87\
89\
313/313 [==============================] - 48s 154ms/step - loss: 2.2988 - accuracy: 0.1804\
accuracy  18.039999902248383\
Model: "model_9"\
_________________________________________________________________\
Layer (type)                 Output Shape              Param #   \
=================================================================\
input_10 (InputLayer)        [(None, 28, 28, 1)]       0         \
_________________________________________________________________\
conv2d_14 (Conv2D)           (None, 28, 28, 83)        166       \
_________________________________________________________________\
max_pooling2d_11 (MaxPooling (None, 6, 6, 83)          0         \
_________________________________________________________________\
flatten_14 (Flatten)         (None, 2988)              0         \
_________________________________________________________________\
flatten_15 (Flatten)         (None, 2988)              0         \
_________________________________________________________________\
dense_13 (Dense)             (None, 10)                29890     \
=================================================================\
Total params: 30,056\
Trainable params: 30,056\
Non-trainable params: 0\
_________________________________________________________________\
600/600 [==============================] - 2s 2ms/step - loss: 1.8343 - accuracy: 0.3857  \
87\
89\
313/313 [==============================] - 2s 7ms/step - loss: 1.0858 - accuracy: 0.6564\
…
gen     nevals  avg                             std                             min                             max        \
0       10      [1.00073260e+06 5.10809999e+01] [1.59280702e+06 2.63715450e+01] [1750.            8.91999975]   5.20912e+06\
length of population 10\
Model: "model_10"\
_________________________________________________________________\
Layer (type)                 Output Shape              Param #   \
=================================================================\
input_11 (InputLayer)        [(None, 28, 28, 1)]       0         \
_________________________________________________________________\
conv2d_15 (Conv2D)           (None, 28, 28, 83)        166       \
_________________________________________________________________\
max_pooling2d_12 (MaxPooling (None, 6, 6, 83)          0         \
_________________________________________________________________\
flatten_16 (Flatten)         (None, 2988)              0         \
_________________________________________________________________\
flatten_17 (Flatten)         (None, 2988)              0         \
_________________________________________________________________\
dense_14 (Dense)             (None, 10)                29890     \
=================================================================\
Total params: 30,056\
Trainable params: 30,056\
Non-trainable params: 0\
_________________________________________________________________\
600/600 [==============================] - 1s 2ms/step - loss: 1.8540 - accuracy: 0.4202\
87\
89\
313/313 [==============================] - 2s 6ms/step - loss: 1.0311 - accuracy: 0.6700\
accuracy  67.00000166893005\
Model: "model_11"\
_________________________________________________________________\
Layer (type)                 Output Shape              Param #   \
=================================================================\
input_12 (InputLayer)        [(None, 28, 28, 1)]       0         \
_________________________________________________________________\
conv2d_16 (Conv2D)           (None, 28, 28, 87)        870       \
_________________________________________________________________\
max_pooling2d_13 (MaxPooling (None, 6, 6, 87)          0         \
_________________________________________________________________\
max_pooling2d_14 (MaxPooling (None, 1, 1, 87)          0         \
_________________________________________________________________\
flatten_18 (Flatten)         (None, 87)                0         \
_________________________________________________________________\
flatten_19 (Flatten)         (None, 87)                0         \
_________________________________________________________________\
dropout_5 (Dropout)          (None, 87)                0         \
_________________________________________________________________\
dropout_6 (Dropout)          (None, 87)                0         \
=================================================================\
Total params: 870\
Trainable params: 870\
Non-trainable params: 0\
_________________________________________________________________\
600/600 [==============================] - 2s 2ms/step - loss: 8.3650 - accuracy: 0.0662  \
87\
89\
313/313 [==============================] - 3s 7ms/step - loss: 4.6918 - accuracy: 0.0963\
accuracy  9.629999846220016\
Model: "model_12"\
_________________________________________________________________\
Layer (type)                 Output Shape              Param #   \
=================================================================\
input_13 (InputLayer)        [(None, 28, 28, 1)]       0         \
_________________________________________________________________\
conv2d_17 (Conv2D)           (None, 26, 26, 115)       1150      \
_________________________________________________________________\
conv2d_18 (Conv2D)           (None, 26, 26, 104)       12064     \
_________________________________________________________________\
max_pooling2d_15 (MaxPooling (None, 7, 7, 104)         0         \
_________________________________________________________________\
flatten_20 (Flatten)         (None, 5096)              0         \
_________________________________________________________________\
flatten_21 (Flatten)         (None, 5096)              0         \
_________________________________________________________________\
dense_15 (Dense)             (None, 10)                50970     \
_________________________________________________________________\
dense_16 (Dense)             (None, 10)                110       \
=================================================================\
Total params: 64,294\
Trainable params: 64,294\
Non-trainable params: 0\
_________________________________________________________________\
600/600 [==============================] - 4s 5ms/step - loss: 2.3470 - accuracy: 0.0953  \
87\
89\
313/313 [==============================] - 7s 21ms/step - loss: 2.3233 - accuracy: 0.0958\
accuracy  9.57999974489212\
1       3       [35501.8           46.95400067] [3.10851212e+04 2.35025722e+01] [870.           9.57999974]     101946     \
length of population 10\
Model: "model_13"\
_________________________________________________________________\
Layer (type)                 Output Shape              Param #   \
=================================================================\
input_14 (InputLayer)        [(None, 28, 28, 1)]       0         \
_________________________________________________________________\
conv2d_19 (Conv2D)           (None, 28, 28, 83)        166       \
_________________________________________________________________\
max_pooling2d_16 (MaxPooling (None, 6, 6, 83)          0         \
_________________________________________________________________\
flatten_22 (Flatten)         (None, 2988)              0         \
_________________________________________________________________\
flatten_23 (Flatten)         (None, 2988)              0         \
_________________________________________________________________\
dense_17 (Dense)             (None, 10)                29890     \
=================================================================\
Total params: 30,056\
Trainable params: 30,056\
Non-trainable params: 0\
_________________________________________________________________\
600/600 [==============================] - 2s 2ms/step - loss: 1.8283 - accuracy: 0.3557  \
87\
89\
313/313 [==============================] - 2s 7ms/step - loss: 1.0226 - accuracy: 0.6837\
accuracy  68.37000250816345\
Model: "model_14"\
_________________________________________________________________\
Layer (type)                 Output Shape              Param #   \
=================================================================\
input_15 (InputLayer)        [(None, 28, 28, 1)]       0         \
_________________________________________________________________\
conv2d_20 (Conv2D)           (None, 28, 28, 87)        870       \
_________________________________________________________________\
max_pooling2d_17 (MaxPooling (None, 6, 6, 87)          0         \
_________________________________________________________________\
max_pooling2d_18 (MaxPooling (None, 1, 1, 87)          0         \
_________________________________________________________________\
flatten_24 (Flatten)         (None, 87)                0         \
_________________________________________________________________\
flatten_25 (Flatten)         (None, 87)                0         \
_________________________________________________________________\
dropout_7 (Dropout)          (None, 87)                0         \
_________________________________________________________________\
dense_18 (Dense)             (None, 10)                880       \
=================================================================\
Total params: 1,750\
Trainable params: 1,750\
Non-trainable params: 0\
_________________________________________________________________\
600/600 [==============================] - 2s 2ms/step - loss: 2.2977 - accuracy: 0.1056  \
87\
89\
313/313 [==============================] - 2s 7ms/step - loss: 2.2144 - accuracy: 0.2138\
accuracy  21.379999816417694\
2       2       [12808.4           37.71800064] [14086.73006201    24.70860246] [870.           9.62999985]     30056      \
length of population 10\
Model: "model_15"\
_________________________________________________________________\
Layer (type)                 Output Shape              Param #   \
=================================================================\
input_16 (InputLayer)        [(None, 28, 28, 1)]       0         \
_________________________________________________________________\
conv2d_21 (Conv2D)           (None, 28, 28, 87)        870       \
_________________________________________________________________\
max_pooling2d_19 (MaxPooling (None, 6, 6, 87)          0         \
_________________________________________________________________\
max_pooling2d_20 (MaxPooling (None, 1, 1, 87)          0         \
_________________________________________________________________\
flatten_26 (Flatten)         (None, 87)                0         \
_________________________________________________________________\
flatten_27 (Flatten)         (None, 87)                0         \
_________________________________________________________________\
dropout_8 (Dropout)          (None, 87)                0         \
_________________________________________________________________\
dropout_9 (Dropout)          (None, 87)                0         \
=================================================================\
Total params: 870\
Trainable params: 870\
Non-trainable params: 0\
_________________________________________________________________\
600/600 [==============================] - 2s 2ms/step - loss: 7.8670 - accuracy: 0.0853   \
87\
89\
313/313 [==============================] - 2s 6ms/step - loss: 4.5955 - accuracy: 0.0963\
accuracy  9.629999846220016\
Model: "model_16"\
_________________________________________________________________\
Layer (type)                 Output Shape              Param #   \
=================================================================\
input_17 (InputLayer)        [(None, 28, 28, 1)]       0         \
_________________________________________________________________\
max_pooling2d_21 (MaxPooling (None, 9, 9, 1)           0         \
_________________________________________________________________\
flatten_28 (Flatten)         (None, 81)                0         \
_________________________________________________________________\
flatten_29 (Flatten)         (None, 81)                0         \
_________________________________________________________________\
dropout_10 (Dropout)         (None, 81)                0         \
_________________________________________________________________\
dropout_11 (Dropout)         (None, 81)                0         \
=================================================================\
Total params: 0\
Trainable params: 0\
Non-trainable params: 0\
_________________________________________________________________\
600/600 [==============================] - 1s 913us/step - loss: 18.4426 - accuracy: 0.0015\
87\
89\
313/313 [==============================] - 1s 2ms/step - loss: 18.6178 - accuracy: 0.0065 \
…
/Library/Frameworks/Python.framework/Versions/3.7/lib/python3.7/site-packages/numpy/core/_methods.py:202: RuntimeWarning: invalid value encountered in subtract\
  x = asanyarray(arr - arrmean)\
3       3       [        inf 15.96899951]       [        nan 12.05216983]       [870.   0.]                     inf        \
length of population 10\
Model: "model_17"\
_________________________________________________________________\
Layer (type)                 Output Shape              Param #   \
=================================================================\
input_19 (InputLayer)        [(None, 28, 28, 1)]       0         \
_________________________________________________________________\
conv2d_24 (Conv2D)           (None, 28, 28, 87)        870       \
_________________________________________________________________\
max_pooling2d_25 (MaxPooling (None, 6, 6, 87)          0         \
_________________________________________________________________\
max_pooling2d_26 (MaxPooling (None, 1, 1, 87)          0         \
_________________________________________________________________\
flatten_30 (Flatten)         (None, 87)                0         \
_________________________________________________________________\
flatten_31 (Flatten)         (None, 87)                0         \
_________________________________________________________________\
dropout_12 (Dropout)         (None, 87)                0         \
_________________________________________________________________\
dropout_13 (Dropout)         (None, 87)                0         \
=================================================================\
Total params: 870\
Trainable params: 870\
Non-trainable params: 0\
_________________________________________________________________\
600/600 [==============================] - 1s 2ms/step - loss: 8.0488 - accuracy: 0.0968  \
87\
89\
313/313 [==============================] - 2s 5ms/step - loss: 4.6277 - accuracy: 0.0970\
accuracy  9.700000286102295\
Model: "model_18"\
_________________________________________________________________\
Layer (type)                 Output Shape              Param #   \
=================================================================\
input_20 (InputLayer)        [(None, 28, 28, 1)]       0         \
_________________________________________________________________\
conv2d_25 (Conv2D)           (None, 28, 28, 87)        870       \
_________________________________________________________________\
max_pooling2d_27 (MaxPooling (None, 6, 6, 87)          0         \
_________________________________________________________________\
max_pooling2d_28 (MaxPooling (None, 1, 1, 87)          0         \
_________________________________________________________________\
flatten_32 (Flatten)         (None, 87)                0         \
_________________________________________________________________\
flatten_33 (Flatten)         (None, 87)                0         \
_________________________________________________________________\
dropout_14 (Dropout)         (None, 87)                0         \
_________________________________________________________________\
dropout_15 (Dropout)         (None, 87)                0         \
=================================================================\
Total params: 870\
Trainable params: 870\
Non-trainable params: 0\
_________________________________________________________________\
600/600 [==============================] - 2s 2ms/step - loss: 7.3710 - accuracy: 0.1155  \
87\
89\
313/313 [==============================] - 2s 5ms/step - loss: 4.7709 - accuracy: 0.0948\
accuracy  9.480000287294388\
Model: "model_19"\
_________________________________________________________________\
Layer (type)                 Output Shape              Param #   \
=================================================================\
input_21 (InputLayer)        [(None, 28, 28, 1)]       0         \
_________________________________________________________________\
conv2d_26 (Conv2D)           (None, 28, 28, 87)        870       \
_________________________________________________________________\
max_pooling2d_29 (MaxPooling (None, 6, 6, 87)          0         \
_________________________________________________________________\
max_pooling2d_30 (MaxPooling (None, 1, 1, 87)          0         \
_________________________________________________________________\
flatten_34 (Flatten)         (None, 87)                0         \
_________________________________________________________________\
flatten_35 (Flatten)         (None, 87)                0         \
_________________________________________________________________\
dropout_16 (Dropout)         (None, 87)                0         \
_________________________________________________________________\
dropout_17 (Dropout)         (None, 87)                0         \
=================================================================\
Total params: 870\
Trainable params: 870\
Non-trainable params: 0\
_________________________________________________________________\
600/600 [==============================] - 2s 2ms/step - loss: 8.2736 - accuracy: 0.0628   \
87\
89\
313/313 [==============================] - 2s 6ms/step - loss: 4.6177 - accuracy: 0.1024\
accuracy  10.239999741315842\
4       3       [1046.           13.78299974]   [352.           8.17572836]     [870.           9.48000029]     1750       \
length of population 10\
Model: "model_20"\
_________________________________________________________________\
Layer (type)                 Output Shape              Param #   \
=================================================================\
input_22 (InputLayer)        [(None, 28, 28, 1)]       0         \
_________________________________________________________________\
conv2d_27 (Conv2D)           (None, 28, 28, 87)        870       \
_________________________________________________________________\
max_pooling2d_31 (MaxPooling (None, 6, 6, 87)          0         \
_________________________________________________________________\
max_pooling2d_32 (MaxPooling (None, 1, 1, 87)          0         \
_________________________________________________________________\
flatten_36 (Flatten)         (None, 87)                0         \
_________________________________________________________________\
flatten_37 (Flatten)         (None, 87)                0         \
_________________________________________________________________\
dropout_18 (Dropout)         (None, 87)                0         \
_________________________________________________________________\
dropout_19 (Dropout)         (None, 87)                0         \
=================================================================\
Total params: 870\
Trainable params: 870\
Non-trainable params: 0\
_________________________________________________________________\
600/600 [==============================] - 1s 2ms/step - loss: 7.5386 - accuracy: 0.1054  \
87\
89\
313/313 [==============================] - 2s 5ms/step - loss: 4.7899 - accuracy: 0.0938\
accuracy  9.380000084638596\
Model: "model_21"\
_________________________________________________________________\
Layer (type)                 Output Shape              Param #   \
=================================================================\
input_23 (InputLayer)        [(None, 28, 28, 1)]       0         \
_________________________________________________________________\
conv2d_28 (Conv2D)           (None, 28, 28, 87)        870       \
_________________________________________________________________\
max_pooling2d_33 (MaxPooling (None, 6, 6, 87)          0         \
_________________________________________________________________\
max_pooling2d_34 (MaxPooling (None, 1, 1, 87)          0         \
_________________________________________________________________\
flatten_38 (Flatten)         (None, 87)                0         \
_________________________________________________________________\
flatten_39 (Flatten)         (None, 87)                0         \
_________________________________________________________________\
dropout_20 (Dropout)         (None, 87)                0         \
_________________________________________________________________\
dropout_21 (Dropout)         (None, 87)                0         \
=================================================================\
Total params: 870\
Trainable params: 870\
Non-trainable params: 0\
_________________________________________________________________\
600/600 [==============================] - 2s 2ms/step - loss: 7.7739 - accuracy: 0.0857  \
87\
89\
313/313 [==============================] - 2s 5ms/step - loss: 4.7116 - accuracy: 0.0944\
…
313/313 [==============================] - 2s 5ms/step - loss: 4.6986 - accuracy: 0.0959\
accuracy  9.589999914169312\
8       2       [870.          10.05599983]     [0.         0.28692145]         [870.           9.52000022]     870        \
length of population 10\
Model: "model_29"\
_________________________________________________________________\
Layer (type)                 Output Shape              Param #   \
=================================================================\
input_31 (InputLayer)        [(None, 28, 28, 1)]       0         \
_________________________________________________________________\
conv2d_36 (Conv2D)           (None, 28, 28, 87)        870       \
_________________________________________________________________\
max_pooling2d_49 (MaxPooling (None, 6, 6, 87)          0         \
_________________________________________________________________\
max_pooling2d_50 (MaxPooling (None, 1, 1, 87)          0         \
_________________________________________________________________\
flatten_54 (Flatten)         (None, 87)                0         \
_________________________________________________________________\
flatten_55 (Flatten)         (None, 87)                0         \
_________________________________________________________________\
dropout_36 (Dropout)         (None, 87)                0         \
_________________________________________________________________\
dropout_37 (Dropout)         (None, 87)                0         \
=================================================================\
Total params: 870\
Trainable params: 870\
Non-trainable params: 0\
_________________________________________________________________\
600/600 [==============================] - 2s 2ms/step - loss: 8.0239 - accuracy: 0.0947   \
87\
89\
313/313 [==============================] - 2s 6ms/step - loss: 4.7228 - accuracy: 0.0963\
accuracy  9.629999846220016\
Model: "model_30"\
_________________________________________________________________\
Layer (type)                 Output Shape              Param #   \
=================================================================\
input_32 (InputLayer)        [(None, 28, 28, 1)]       0         \
_________________________________________________________________\
flatten_56 (Flatten)         (None, 784)               0         \
_________________________________________________________________\
flatten_57 (Flatten)         (None, 784)               0         \
_________________________________________________________________\
flatten_58 (Flatten)         (None, 784)               0         \
_________________________________________________________________\
dropout_38 (Dropout)         (None, 784)               0         \
_________________________________________________________________\
dropout_39 (Dropout)         (None, 784)               0         \
=================================================================\
Total params: 0\
Trainable params: 0\
Non-trainable params: 0\
_________________________________________________________________\
600/600 [==============================] - 1s 1ms/step - loss: 20.4058 - accuracy: 0.0000e+00\
87\
89\
313/313 [==============================] - 1s 1ms/step - loss: 20.7039 - accuracy: 0.0000e+00\
…
